…
I0325 20:55:40.379425  7819 net.cpp:294] The NetState phase (0) differed from the phase (1) specified by a rule in layer mnist
I0325 20:55:40.379446  7819 net.cpp:294] The NetState phase (0) differed from the phase (1) specified by a rule in layer accuracy
I0325 20:55:40.379520  7819 net.cpp:51] Initializing net from parameters: 
name: "LeNet"
state {
  phase: TRAIN
  level: 0
  stage: ""
}
layer {
  name: "mnist"
  type: "Data"
  top: "data"
  top: "label"
  include {
    phase: TRAIN
  }
  transform_param {
    scale: 0.00390625
  }
  data_param {
    source: "./mnist_train_lmdb"
    batch_size: 64
    backend: LMDB
  }
}
layer {
  name: "conv1"
  type: "Convolution"
  bottom: "data"
  top: "conv1"
  param {
    lr_mult: 1
  }
  param {
    lr_mult: 2
  }
  convolution_param {
    num_output: 20
    kernel_size: 5
    stride: 1
    weight_filler {
      type: "xavier"
    }
    bias_filler {
      type: "constant"
    }
  }
}
layer {
  name: "pool1"
  type: "Pooling"
  bottom: "conv1"
  top: "pool1"
  pooling_param {
    pool: MAX
    kernel_size: 2
    stride: 2
  }
}
layer {
  name: "conv2"
  type: "Convolution"
  bottom: "pool1"
  top: "conv2"
  param {
    lr_mult: 1
  }
  param {
    lr_mult: 2
  }
  convolution_param {
    num_output: 20
    kernel_size: 3
    stride: 1
    weight_filler {
      type: "xavier"
    }
    bias_filler {
      type: "constant"
    }
  }
}
layer {
  name: "pool2"
  type: "Pooling"
  bottom: "conv2"
  top: "pool2"
  pooling_param {
    pool: MAX
    kernel_size: 2
    stride: 2
  }
}
layer {
  name: "conv3"
  type: "Convolution"
  bottom: "pool2"
  top: "conv3"
  param {
    lr_mult: 1
  }
  param {
    lr_mult: 2
  }
  convolution_param {
    num_output: 20
    kernel_size: 3
    stride: 1
    weight_filler {
      type: "xavier"
    }
    bias_filler {
      type: "constant"
    }
  }
}
layer {
  name: "pool3"
  type: "Pooling"
  bottom: "conv3"
  top: "pool3"
  pooling_param {
    pool: MAX
    kernel_size: 2
    stride: 2
  }
}
layer {
  name: "ip1"
  type: "InnerProduct"
  bottom: "pool3"
  top: "ip1"
  param {
    lr_mult: 1
  }
  param {
    lr_mult: 2
  }
  inner_product_param {
    num_output: 500
    weight_filler {
      type: "xavier"
    }
    bias_filler {
      type: "constant"
    }
  }
}
layer {
  name: "relu1"
  type: "ReLU"
  bottom: "ip1"
  top: "ip1"
}
layer {
  name: "loss"
  type: "SoftmaxWithLoss"
  bottom: "ip1"
  bottom: "label"
  top: "loss"
}
I0325 20:55:40.379576  7819 layer_factory.hpp:77] Creating layer mnist
I0325 20:55:40.379649  7819 db_lmdb.cpp:35] Opened lmdb ./mnist_train_lmdb
I0325 20:55:40.379670  7819 net.cpp:84] Creating Layer mnist
I0325 20:55:40.379681  7819 net.cpp:380] mnist -> data
I0325 20:55:40.379703  7819 net.cpp:380] mnist -> label
I0325 20:55:40.379724  7819 data_layer.cpp:45] output data size: 64,1,28,28
I0325 20:55:40.379849  7819 net.cpp:122] Setting up mnist
I0325 20:55:40.379865  7819 net.cpp:129] Top shape: 64 1 28 28 (50176)
I0325 20:55:40.379873  7819 net.cpp:129] Top shape: 64 (64)
I0325 20:55:40.379879  7819 net.cpp:137] Memory required for data: 200960
I0325 20:55:40.379886  7819 layer_factory.hpp:77] Creating layer conv1
I0325 20:55:40.379897  7819 net.cpp:84] Creating Layer conv1
I0325 20:55:40.379905  7819 net.cpp:406] conv1 <- data
I0325 20:55:40.379914  7819 net.cpp:380] conv1 -> conv1
I0325 20:55:40.379945  7819 net.cpp:122] Setting up conv1
I0325 20:55:40.379956  7819 net.cpp:129] Top shape: 64 20 24 24 (737280)
I0325 20:55:40.379962  7819 net.cpp:137] Memory required for data: 3150080
I0325 20:55:40.379978  7819 layer_factory.hpp:77] Creating layer pool1
I0325 20:55:40.379989  7819 net.cpp:84] Creating Layer pool1
I0325 20:55:40.380013  7819 net.cpp:406] pool1 <- conv1
I0325 20:55:40.380023  7819 net.cpp:380] pool1 -> pool1
I0325 20:55:40.380036  7819 net.cpp:122] Setting up pool1
I0325 20:55:40.380046  7819 net.cpp:129] Top shape: 64 20 12 12 (184320)
I0325 20:55:40.380053  7819 net.cpp:137] Memory required for data: 3887360
I0325 20:55:40.380060  7819 layer_factory.hpp:77] Creating layer conv2
I0325 20:55:40.380071  7819 net.cpp:84] Creating Layer conv2
I0325 20:55:40.380079  7819 net.cpp:406] conv2 <- pool1
I0325 20:55:40.380491  7819 net.cpp:380] conv2 -> conv2
I0325 20:55:40.380549  7819 net.cpp:122] Setting up conv2
I0325 20:55:40.380563  7819 net.cpp:129] Top shape: 64 20 10 10 (128000)
I0325 20:55:40.380570  7819 net.cpp:137] Memory required for data: 4399360
I0325 20:55:40.380580  7819 layer_factory.hpp:77] Creating layer pool2
I0325 20:55:40.380590  7819 net.cpp:84] Creating Layer pool2
I0325 20:55:40.380599  7819 net.cpp:406] pool2 <- conv2
I0325 20:55:40.380607  7819 net.cpp:380] pool2 -> pool2
I0325 20:55:40.380620  7819 net.cpp:122] Setting up pool2
I0325 20:55:40.380628  7819 net.cpp:129] Top shape: 64 20 5 5 (32000)
I0325 20:55:40.380635  7819 net.cpp:137] Memory required for data: 4527360
I0325 20:55:40.380641  7819 layer_factory.hpp:77] Creating layer conv3
I0325 20:55:40.380651  7819 net.cpp:84] Creating Layer conv3
I0325 20:55:40.380661  7819 net.cpp:406] conv3 <- pool2
I0325 20:55:40.380671  7819 net.cpp:380] conv3 -> conv3
I0325 20:55:40.380726  7819 net.cpp:122] Setting up conv3
I0325 20:55:40.380738  7819 net.cpp:129] Top shape: 64 20 3 3 (11520)
I0325 20:55:40.380743  7819 net.cpp:137] Memory required for data: 4573440
I0325 20:55:40.380754  7819 layer_factory.hpp:77] Creating layer pool3
I0325 20:55:40.380764  7819 net.cpp:84] Creating Layer pool3
I0325 20:55:40.380770  7819 net.cpp:406] pool3 <- conv3
I0325 20:55:40.380779  7819 net.cpp:380] pool3 -> pool3
I0325 20:55:40.380789  7819 net.cpp:122] Setting up pool3
I0325 20:55:40.380797  7819 net.cpp:129] Top shape: 64 20 2 2 (5120)
I0325 20:55:40.380803  7819 net.cpp:137] Memory required for data: 4593920
I0325 20:55:40.380810  7819 layer_factory.hpp:77] Creating layer ip1
I0325 20:55:40.380820  7819 net.cpp:84] Creating Layer ip1
I0325 20:55:40.380826  7819 net.cpp:406] ip1 <- pool3
I0325 20:55:40.380836  7819 net.cpp:380] ip1 -> ip1
I0325 20:55:40.381213  7819 net.cpp:122] Setting up ip1
I0325 20:55:40.381230  7819 net.cpp:129] Top shape: 64 500 (32000)
I0325 20:55:40.381238  7819 net.cpp:137] Memory required for data: 4721920
I0325 20:55:40.381248  7819 layer_factory.hpp:77] Creating layer relu1
I0325 20:55:40.381259  7819 net.cpp:84] Creating Layer relu1
I0325 20:55:40.381266  7819 net.cpp:406] relu1 <- ip1
I0325 20:55:40.381275  7819 net.cpp:367] relu1 -> ip1 (in-place)
I0325 20:55:40.381289  7819 net.cpp:122] Setting up relu1
I0325 20:55:40.381299  7819 net.cpp:129] Top shape: 64 500 (32000)
I0325 20:55:40.381305  7819 net.cpp:137] Memory required for data: 4849920
I0325 20:55:40.381312  7819 layer_factory.hpp:77] Creating layer loss
I0325 20:55:40.381322  7819 net.cpp:84] Creating Layer loss
I0325 20:55:40.381330  7819 net.cpp:406] loss <- ip1
I0325 20:55:40.381337  7819 net.cpp:406] loss <- label
I0325 20:55:40.381346  7819 net.cpp:380] loss -> loss
I0325 20:55:40.381359  7819 layer_factory.hpp:77] Creating layer loss
…
I0325 20:55:40.381783  7819 solver.cpp:172] Creating test net (#0) specified by net file: ./hello.prototxt
I0325 20:55:40.381816  7819 net.cpp:294] The NetState phase (1) differed from the phase (0) specified by a rule in layer mnist
I0325 20:55:40.381911  7819 net.cpp:51] Initializing net from parameters: 
name: "LeNet"
state {
  phase: TEST
}
layer {
  name: "mnist"
  type: "Data"
  top: "data"
  top: "label"
  include {
    phase: TEST
  }
  transform_param {
    scale: 0.00390625
  }
  data_param {
    source: "./mnist_test_lmdb"
    batch_size: 100
    backend: LMDB
  }
}
layer {
  name: "conv1"
  type: "Convolution"
  bottom: "data"
  top: "conv1"
  param {
    lr_mult: 1
  }
  param {
    lr_mult: 2
  }
  convolution_param {
    num_output: 20
    kernel_size: 5
    stride: 1
    weight_filler {
      type: "xavier"
    }
    bias_filler {
      type: "constant"
    }
  }
}
layer {
  name: "pool1"
  type: "Pooling"
  bottom: "conv1"
  top: "pool1"
  pooling_param {
    pool: MAX
    kernel_size: 2
    stride: 2
  }
}
layer {
  name: "conv2"
  type: "Convolution"
  bottom: "pool1"
  top: "conv2"
  param {
    lr_mult: 1
  }
  param {
    lr_mult: 2
  }
  convolution_param {
    num_output: 20
    kernel_size: 3
    stride: 1
    weight_filler {
      type: "xavier"
    }
    bias_filler {
      type: "constant"
    }
  }
}
layer {
  name: "pool2"
  type: "Pooling"
  bottom: "conv2"
  top: "pool2"
  pooling_param {
    pool: MAX
    kernel_size: 2
    stride: 2
  }
}
layer {
  name: "conv3"
  type: "Convolution"
  bottom: "pool2"
  top: "conv3"
  param {
    lr_mult: 1
  }
  param {
    lr_mult: 2
  }
  convolution_param {
    num_output: 20
    kernel_size: 3
    stride: 1
    weight_filler {
      type: "xavier"
    }
    bias_filler {
      type: "constant"
    }
  }
}
layer {
  name: "pool3"
  type: "Pooling"
  bottom: "conv3"
  top: "pool3"
  pooling_param {
    pool: MAX
    kernel_size: 2
    stride: 2
  }
}
layer {
  name: "ip1"
  type: "InnerProduct"
  bottom: "pool3"
  top: "ip1"
  param {
    lr_mult: 1
  }
  param {
    lr_mult: 2
  }
  inner_product_param {
    num_output: 500
    weight_filler {
      type: "xavier"
    }
    bias_filler {
      type: "constant"
    }
  }
}
layer {
  name: "relu1"
  type: "ReLU"
  bottom: "ip1"
  top: "ip1"
}
layer {
  name: "accuracy"
  type: "Accuracy"
  bottom: "ip1"
  bottom: "label"
  top: "accuracy"
  include {
    phase: TEST
  }
}
layer {
  name: "loss"
  type: "SoftmaxWithLoss"
  bottom: "ip1"
  bottom: "label"
  top: "loss"
}
I0325 20:55:40.381981  7819 layer_factory.hpp:77] Creating layer mnist
I0325 20:55:40.382041  7819 db_lmdb.cpp:35] Opened lmdb ./mnist_test_lmdb
I0325 20:55:40.382064  7819 net.cpp:84] Creating Layer mnist
I0325 20:55:40.382076  7819 net.cpp:380] mnist -> data
I0325 20:55:40.382086  7819 net.cpp:380] mnist -> label
I0325 20:55:40.382107  7819 data_layer.cpp:45] output data size: 100,1,28,28
I0325 20:55:40.382166  7819 net.cpp:122] Setting up mnist
I0325 20:55:40.382179  7819 net.cpp:129] Top shape: 100 1 28 28 (78400)
I0325 20:55:40.382189  7819 net.cpp:129] Top shape: 100 (100)
I0325 20:55:40.382194  7819 net.cpp:137] Memory required for data: 314000
I0325 20:55:40.382202  7819 layer_factory.hpp:77] Creating layer label_mnist_1_split
I0325 20:55:40.382213  7819 net.cpp:84] Creating Layer label_mnist_1_split
I0325 20:55:40.382222  7819 net.cpp:406] label_mnist_1_split <- label
I0325 20:55:40.382232  7819 net.cpp:380] label_mnist_1_split -> label_mnist_1_split_0
I0325 20:55:40.382243  7819 net.cpp:380] label_mnist_1_split -> label_mnist_1_split_1
I0325 20:55:40.382257  7819 net.cpp:122] Setting up label_mnist_1_split
I0325 20:55:40.382273  7819 net.cpp:129] Top shape: 100 (100)
I0325 20:55:40.382290  7819 net.cpp:129] Top shape: 100 (100)
I0325 20:55:40.382297  7819 net.cpp:137] Memory required for data: 314800
I0325 20:55:40.382304  7819 layer_factory.hpp:77] Creating layer conv1
I0325 20:55:40.382318  7819 net.cpp:84] Creating Layer conv1
I0325 20:55:40.382326  7819 net.cpp:406] conv1 <- data
I0325 20:55:40.382336  7819 net.cpp:380] conv1 -> conv1
I0325 20:55:40.382369  7819 net.cpp:122] Setting up conv1
I0325 20:55:40.382380  7819 net.cpp:129] Top shape: 100 20 24 24 (1152000)
I0325 20:55:40.382390  7819 net.cpp:137] Memory required for data: 4922800
I0325 20:55:40.382405  7819 layer_factory.hpp:77] Creating layer pool1
I0325 20:55:40.382416  7819 net.cpp:84] Creating Layer pool1
I0325 20:55:40.382423  7819 net.cpp:406] pool1 <- conv1
I0325 20:55:40.382433  7819 net.cpp:380] pool1 -> pool1
I0325 20:55:40.382444  7819 net.cpp:122] Setting up pool1
I0325 20:55:40.382454  7819 net.cpp:129] Top shape: 100 20 12 12 (288000)
I0325 20:55:40.382462  7819 net.cpp:137] Memory required for data: 6074800
I0325 20:55:40.382468  7819 layer_factory.hpp:77] Creating layer conv2
I0325 20:55:40.382480  7819 net.cpp:84] Creating Layer conv2
I0325 20:55:40.382488  7819 net.cpp:406] conv2 <- pool1
I0325 20:55:40.382498  7819 net.cpp:380] conv2 -> conv2
I0325 20:55:40.382549  7819 net.cpp:122] Setting up conv2
I0325 20:55:40.382558  7819 net.cpp:129] Top shape: 100 20 10 10 (200000)
I0325 20:55:40.382565  7819 net.cpp:137] Memory required for data: 6874800
I0325 20:55:40.382575  7819 layer_factory.hpp:77] Creating layer pool2
I0325 20:55:40.382586  7819 net.cpp:84] Creating Layer pool2
I0325 20:55:40.382592  7819 net.cpp:406] pool2 <- conv2
I0325 20:55:40.382601  7819 net.cpp:380] pool2 -> pool2
I0325 20:55:40.382611  7819 net.cpp:122] Setting up pool2
I0325 20:55:40.382621  7819 net.cpp:129] Top shape: 100 20 5 5 (50000)
I0325 20:55:40.382627  7819 net.cpp:137] Memory required for data: 7074800
I0325 20:55:40.382634  7819 layer_factory.hpp:77] Creating layer conv3
I0325 20:55:40.382645  7819 net.cpp:84] Creating Layer conv3
I0325 20:55:40.382652  7819 net.cpp:406] conv3 <- pool2
I0325 20:55:40.382661  7819 net.cpp:380] conv3 -> conv3
I0325 20:55:40.382715  7819 net.cpp:122] Setting up conv3
I0325 20:55:40.382727  7819 net.cpp:129] Top shape: 100 20 3 3 (18000)
I0325 20:55:40.382733  7819 net.cpp:137] Memory required for data: 7146800
I0325 20:55:40.382743  7819 layer_factory.hpp:77] Creating layer pool3
I0325 20:55:40.382750  7819 net.cpp:84] Creating Layer pool3
I0325 20:55:40.382757  7819 net.cpp:406] pool3 <- conv3
I0325 20:55:40.382764  7819 net.cpp:380] pool3 -> pool3
I0325 20:55:40.382776  7819 net.cpp:122] Setting up pool3
I0325 20:55:40.382783  7819 net.cpp:129] Top shape: 100 20 2 2 (8000)
I0325 20:55:40.382789  7819 net.cpp:137] Memory required for data: 7178800
I0325 20:55:40.382796  7819 layer_factory.hpp:77] Creating layer ip1
I0325 20:55:40.382804  7819 net.cpp:84] Creating Layer ip1
I0325 20:55:40.382812  7819 net.cpp:406] ip1 <- pool3
I0325 20:55:40.382819  7819 net.cpp:380] ip1 -> ip1
I0325 20:55:40.383200  7819 net.cpp:122] Setting up ip1
I0325 20:55:40.383219  7819 net.cpp:129] Top shape: 100 500 (50000)
I0325 20:55:40.383225  7819 net.cpp:137] Memory required for data: 7378800
I0325 20:55:40.383234  7819 layer_factory.hpp:77] Creating layer relu1
I0325 20:55:40.383251  7819 net.cpp:84] Creating Layer relu1
I0325 20:55:40.383260  7819 net.cpp:406] relu1 <- ip1
I0325 20:55:40.383270  7819 net.cpp:367] relu1 -> ip1 (in-place)
I0325 20:55:40.383278  7819 net.cpp:122] Setting up relu1
I0325 20:55:40.383287  7819 net.cpp:129] Top shape: 100 500 (50000)
I0325 20:55:40.383293  7819 net.cpp:137] Memory required for data: 7578800
I0325 20:55:40.383301  7819 layer_factory.hpp:77] Creating layer ip1_relu1_0_split
I0325 20:55:40.383309  7819 net.cpp:84] Creating Layer ip1_relu1_0_split
I0325 20:55:40.383316  7819 net.cpp:406] ip1_relu1_0_split <- ip1
I0325 20:55:40.383324  7819 net.cpp:380] ip1_relu1_0_split -> ip1_relu1_0_split_0
I0325 20:55:40.383340  7819 net.cpp:380] ip1_relu1_0_split -> ip1_relu1_0_split_1
I0325 20:55:40.383360  7819 net.cpp:122] Setting up ip1_relu1_0_split
I0325 20:55:40.383369  7819 net.cpp:129] Top shape: 100 500 (50000)
I0325 20:55:40.383378  7819 net.cpp:129] Top shape: 100 500 (50000)
I0325 20:55:40.383383  7819 net.cpp:137] Memory required for data: 7978800
I0325 20:55:40.383389  7819 layer_factory.hpp:77] Creating layer accuracy
I0325 20:55:40.383400  7819 net.cpp:84] Creating Layer accuracy
I0325 20:55:40.383407  7819 net.cpp:406] accuracy <- ip1_relu1_0_split_0
I0325 20:55:40.383415  7819 net.cpp:406] accuracy <- label_mnist_1_split_0
I0325 20:55:40.383424  7819 net.cpp:380] accuracy -> accuracy
…
